DWAM.pth (torch_old, 28333 bytes, 6 tensors)

fc1.weight f4 [64, 37]
000000 52 d3 b4 3e 57 71 0b bf 95 0f 14 bf 5d ce 06 bf
       0.35317475 -0.5446982 -0.57836276 -0.52658635
000010 97 65 e3 bf 1f 67 c1 3d 28 2b 2f bd 14 8f b5 3d
       -1.7765378 0.09443497 -0.042765766 0.088651806
000020 28 e4 83 3d 5b 3e 41 3d a0 70 5b be d5 cd 0c bd
       0.06440002 0.047178607 -0.21429682 -0.034375984
000030 ea d1 00 be 4c 54 5d bc b9 6e d3 3d c8 6e df bb
       -0.12580076 -0.0135088675 0.10323853 -0.006818626
000040 24 8f da 3a 35 0f c2 3c da 55 fc 3c 56 1e e2 bd
       0.0016674739 0.023688892 0.030802656 -0.11040942
000050 f7 e8 51 bb b3 ac e5 3d 3c eb 2d 3d 81 cc 28 3c
       -0.0032029727 0.112145804 0.042460665 0.010302664
000060 36 0b 49 bd 6d 48 47 bd bc 36 cb 3d 7a 2a 03 bc
       -0.049082957 -0.048653055 0.09922549 -0.008005733
000070 db 4d 92 bd 90 ed 64 3d 65 0d 72 3c 54 fb 62 bc
       -0.07143756 0.05589062 0.014773701 -0.013853867
000080 5f 8a 14 bd 4c 59 2c bd 64 8d 29 3d 94 e0 d0 bb
       -0.036264773 -0.042077348 0.041394606 -0.006374428
000090 38 59 8f bb 83 eb 87 3d 04 67 0a 3e 76 98 ad 3d
       -0.0043746494 0.06636717 0.1351586 0.08476345
0000a0 1e b8 0c 3e 6b 45 ba 3c 54 3a be 3a db bb b8 bd
       0.1374211 0.02273818 0.0014513233 -0.090202056
0000b0 86 54 db bd ff 27 0e bd 5e 23 8a 3c b5 d7 7f 3d
       -0.10709481 -0.034706112 0.016862568 0.062461574
0000c0 df 94 ff 3c 37 77 53 3d 45 7b 1a 3c 04 1d 5c bd
       0.031198917 0.051627364 0.009428804 -0.05373861
0000d0 13 3c b7 3e 73 6a b9 be 12 f6 5a be 93 c5 8e be
       0.3578802 -0.36214027 -0.21382931 -0.27885112
0000e0 80 4a d6 bf ac 4d ab bd d0 16 95 bd ff 4c 21 bd
       -1.6741486 -0.08364424 -0.07279742 -0.03938007
0000f0 7a 67 4d bd dc 87 25 3d 41 ba d5 bb 66 9f 1e 3c
       -0.05014751 0.04041277 -0.0065224473 0.009681558
000100 0d 6f c8 bc eb 27 46 3d b9 9a 8b 3d e3 41 c0 3d
       -0.024467016 0.048377912 0.068166204 0.09387567
000110 e2 ed c1 3d b1 31 b4 3d 55 1f ab 3d a6 a7 b2 38
       0.09469201 0.087985404 0.083555855 8.5189284e-05
000120 ed f7 4a 3c 50 b4 eb 3b b6 e8 a1 bd 3e 8d 8a 3e
       0.012388212 0.007193126 -0.07905714 0.27060884
000130 e2 c2 37 3e 2e 58 1f bd 9f f2 9c 3c 91 d5 78 be
       0.17945436 -0.038902454 0.01915866 -0.24300219
000140 62 07 ca 3d c9 e0 1a 3e 06 33 d1 3d 6f 45 c1 bd
       0.098646894 0.15124811 0.1021481 -0.094370715
000150 5e cb 1f 3e 14 6f 59 3c 0c 79 ab bd 66 d7 02 be
       0.15604922 0.013271112 -0.08372697 -0.1277748
000160 48 a0 0d be bf 9f c0 be 55 06 49 3e 03 dd 4a 3e
       -0.13830674 -0.37621877 0.19631322 0.19810872
000170 60 6f df 3d 81 2d 97 be 57 63 17 3d 37 3b 0e be
       0.10909915 -0.29526904 0.036959972 -0.13889776
000180 d4 25 8f bd 13 4e 8a 3d f0 be 5c be b2 ce a4 be
       -0.06989637 0.06753173 -0.21557212 -0.32188946
000190 2c 61 71 3e 96 40 91 3e fe 71 1e be e9 e6 ba be
       0.23572224 0.28369588 -0.15473172 -0.36504295
0001a0 8e b6 9c bc 6a ff a2 bc 5c 2a 51 bd ba 95 35 be
       -0.019130018 -0.019897182 -0.051065788 -0.17732897
0001b0 bf 93 54 bd 44 01 a3 3c 01 70 1a bb 54 b6 d0 3e
       -0.051898714 0.019898064 -0.0023565295 0.40764105
0001c0 a5 de 1d bf 8e 71 42 be 19 5a 5e be eb e4 e3 bf
       -0.61667854 -0.1898863 -0.21714057 -1.7804235
0001d0 60 b9 52 bd 56 f4 26 3d fc f1 7e 3c 72 de c0 3d
       -0.05144632 0.04076036 0.015560623 0.09417428
0001e0 bf d6 07 3e dd 54 3a 3c cf fe 99 bd 3b a2 63 bd
       0.13265513 0.011372772 -0.07519304 -0.055574637
0001f0 3b 51 70 bb b2 a0 b2 bc 8b bf 99 bd b7 5f 0e 3d
       -0.003666951 -0.021805141 -0.07507237 0.03475925
000200 86 28 db bd e7 ba 79 bd 93 89 8c bc ab ac a7 bc
       -0.107010886 -0.06096926 -0.017155444 -0.020468077
000210 9e ba 70 bd 8c 8c 78 3d 13 39 5d 3d 13 58 8d 3c
       -0.058771722 0.06068091 0.05400951 0.017253911
000220 ea 22 a7 bd 54 32 78 bd 25 c2 a7 3d 0c ed 68 3e
       -0.08160956 -0.06059487 0.08191327 0.22746676
000230 bd 12 81 3e 35 c8 1f 3c 32 03 55 3d 77 9c cf 3c
       0.2520961 0.009752323 0.052005 0.025343163
000240 f2 08 a1 3d 68 6b a1 bd 4f 08 ca 3c f6 55 5c 3b
       0.07863034 -0.07881814 0.024662165 0.0033620573
000250 34 30 40 be 1f 07 90 bd 5a ba 87 bd 68 fa f3 bd
       -0.18768388 -0.07032608 -0.066273406 -0.119129956
000260 25 1e aa bb 36 81 48 3e 1c b4 29 3e 4e f7 4e be
       -0.005191582 0.1958054 0.16572613 -0.20211527
000270 b5 6a a7 be 02 c1 7c bf 1f 8b f2 3d 8b e0 96 bd
       -0.32698599 -0.98732007 0.118429415 -0.07367047
000280 24 9c 81 bd ca 40 2c be b3 4b 9e be bf e8 d5 bd
       -0.063286096 -0.1682159 -0.3091713 -0.104447834
000290 40 20 c3 3b 4d 9a ac 3c 70 dc 1f 3d 0f 0f 47 3e
       0.0059547722 0.02106967 0.039028585 0.19439338
0002a0 dd b9 ef bd 00 4c 27 3d c2 82 67 3d 33 2d a9 3c
       -0.117053725 0.040843964 0.056521185 0.020651435
0002b0 9f cc 73 3e cd 6a 60 bb f9 cb e9 3c 6e fe d6 3d
       0.23808526 -0.0034243346 0.028539645 0.10497747
0002c0 89 30 c3 3d 03 a7 db 3d 7a f3 c9 3c 98 e4 0e be
       0.09530742 0.10725214 0.024652231 -0.13954389
0002d0 f2 cb f9 3d 61 62 38 3e 8e 25 af 3e eb 08 ba bb
       0.121971026 0.18006279 0.3420834 -0.0056773326
0002e0 3d 1f 6a bb 6e 74 e3 bb 5c 78 64 bd 41 35 46 bc
       -0.0035724186 -0.0069413697 -0.055778846 -0.012097658
0002f0 bc 96 7a 3c a2 f1 94 3c 18 cc 9f 3e 47 4a 2e bd
       0.015294727 0.018181626 0.312104 -0.042551305
000300 3d ab 94 be c9 80 d3 be ea 9f a3 bf 54 70 dc bd
       -0.29036894 -0.41309193 -1.2783177 -0.107636124
000310 30 b0 eb bb 87 4f eb bb bc 34 22 bd f4 d4 fb 3d
       -0.007192634 -0.0071811113 -0.039601073 0.12296477
000320 64 91 d6 3c ac fd 6c bd 32 e8 45 bd 5c 24 24 3d
       0.026192375 -0.057859108 -0.04831714 0.040073738
000330 58 b1 4c be 0d 55 90 3d df 7c ce 3b e1 24 a6 3d
       -0.19989526 0.07047472 0.006301507 0.08112503
000340 3f 2f 56 3e fd 18 35 3e 59 2f f6 bc fa 6b 87 3c
       0.2091646 0.17685314 -0.030051874 0.01653098
000350 f8 a4 a4 3d 74 c8 63 3d ef 07 b4 3d ee 0e df bd
       0.08039278 0.05561109 0.08790576 -0.108915195
000360 51 e5 78 3d 0a dd b0 bd 5d 9c a2 3e 63 c5 c7 3e
       0.06076557 -0.0863591 0.3175992 0.39017782
000370 0e de cb 3c b6 0f 31 3b 08 c9 cb 3d c6 94 6d 3d
       0.024886157 0.002701742 0.09950453 0.05800321
000380 e1 bd 81 be 10 08 aa bc f4 56 c4 ba f9 4d 1a be
       -0.2534018 -0.020755798 -0.0014979527 -0.15068807
000390 22 7f 63 bc 59 61 fb 3a 02 9c 66 bd 01 34 36 3e
       -0.013885291 0.0019178792 -0.056301124 0.17793275
0003a0 fb 2a 77 3e 00 e7 0e 3c 94 a5 a7 bd a3 66 50 be
       0.2413749 0.008722067 -0.081858784 -0.20351653
0003b0 8e ed 12 3e 00 05 9e be be 71 6b 3d 0e 2b 9f bd
       0.14348432 -0.3086319 0.05748152 -0.07771884
0003c0 4e b4 44 3e f5 fb 42 be 1e 49 b3 bd 08 82 01 3e
       0.19209406 -0.19041426 -0.0875418 0.12647259
0003d0 b4 8e ef bd 0a e6 ab bd dd 1f 38 3e 63 1a e2 bd
       -0.1169714 -0.08393486 0.17980905 -0.11040189
0003e0 8b d8 a9 bd de b8 9d 3b 1c 7c 61 3b 29 f9 ab bd
       -0.082932554 0.0048132977 0.003440625 -0.08397133
0003f0 c1 b3 29 3e 39 a0 cf 3a 82 bd ae be 3e a2 3a be
       0.16572477 0.0015840597 -0.34128958 -0.18225953

fc1.bias f4 [64]
000000 ab cd db 3d 9b ea c0 bb 8c ff a2 bd 9c 55 24 bd
       0.107325874 -0.005887342 -0.07958898 -0.040120706
000010 aa c8 30 3e 42 59 10 bd c7 cc dd bd 6c b5 e2 3d
       0.17264047 -0.035241373 -0.10830074 0.1106976
000020 6b 6a c8 3d 19 9a 92 be 57 84 29 3e d6 94 53 3e
       0.097859226 -0.28633192 0.1655439 0.20662245
000030 47 83 5f 3d b9 f1 24 3d 28 67 ab bb 76 cb ac bd
       0.054568555 0.040269587 -0.005230803 -0.084372446
000040 a7 52 0d bb 04 04 75 b9 25 70 07 bd 8d 2c 23 be
       -0.0021564157 -0.00023366517 -0.033065934 -0.15934964
000050 46 2a 27 be d6 df 0d 3c 80 1a b0 3c f4 cb cf bd
       -0.1632472 0.008659324 0.021497011 -0.10146323
000060 cd 4c 1c be 74 87 bf 3d e4 81 95 bd 18 44 49 bc
       -0.15263672 0.093520075 -0.07300165 -0.012284301
000070 ef b1 69 3e 8c cb af 3d 7b 7c 72 bd 1c 5a 10 be
       0.22821783 0.08583745 -0.059200745 -0.14096874
000080 30 6f 08 3e c5 95 ed bb 89 de 64 be ae b4 82 bd
       0.13323665 -0.00725052 -0.22350515 -0.06382118
000090 1e 08 01 be cd 92 48 3c 4f 3d b6 bd 27 6b 13 be
       -0.12600753 0.012242031 -0.088984124 -0.14396344
0000a0 6a 75 48 bd 49 12 a6 3c 6a 00 9f bd ae 41 22 3e
       -0.0489401 0.02027239 -0.07763751 0.15845367
0000b0 ba 50 0c bd 62 ed f7 bd 79 b1 ab bd 99 d7 1a be
       -0.034256674 -0.12105824 -0.083834596 -0.15121306
0000c0 13 be 10 be b6 4b de 3c 21 57 09 be 4c ab 57 bd
       -0.14135008 0.027135711 -0.13412143 -0.052653596
0000d0 a8 9b f9 bd 36 da 3e be 12 d8 1e be dc 47 80 3c
       -0.12187892 -0.18637928 -0.15512112 0.015659265
0000e0 ae f1 92 3d 24 7b fc 38 d1 a1 79 bd 63 cf c8 bd
       0.07175003 0.00012039233 -0.060945336 -0.09805181
0000f0 d2 fc ea 3c 30 5f a5 3d 43 9a 8b 3d 09 9f 8a bc
       0.028685007 0.08074796 0.068165325 -0.016921537

fc2.weight f4 [64, 64]
000000 98 11 80 bc 25 fa 5a 3c 8f 2e bf 3d c0 04 a6 bd
       -0.01563339 0.013365303 0.09335052 -0.08106375
000010 2c 26 24 3e 05 5e 69 be 19 56 6a be ba f0 2b 3c
       0.16030186 -0.22789772 -0.22884406 0.010494405
000020 20 a4 64 bd a7 ba 90 be 12 9f 06 3e 59 bf 20 bf
       -0.055820584 -0.28267404 0.13146618 -0.62791973
000030 98 80 e0 be c0 e1 a7 3d 5b 01 27 be 08 f1 f4 be
       -0.4384811 0.08197355 -0.16309111 -0.47840142
000040 9a ba 90 bd 49 be 42 bd d7 08 49 bd e2 8b 4e bd
       -0.070668414 -0.04754475 -0.049080696 -0.05042637
000050 2c 26 3e 3b 41 dc 5b be 45 9e 50 bd 6f 8d 11 bc
       0.0029014451 -0.21470739 -0.050932188 -0.008883818
000060 d8 e6 aa be 53 d5 77 be 3a 3f 85 3e 52 76 09 be
       -0.33379245 -0.2420247 0.260248 -0.13424042
000070 75 2a 0b be 91 6b 25 3e 1f d7 c2 bd 93 7a 50 be
       -0.13590415 0.16154315 -0.09513687 -0.20359258
000080 9a b8 0e bd 7f d2 d8 3e 9f 0c ab bc e0 39 12 be
       -0.03484402 0.42348096 -0.020880042 -0.1427989
000090 d0 8e 65 be fe 52 f1 3d 98 9d 65 3e bf 44 6c bd
       -0.2241776 0.11783408 0.22423398 -0.05768275
0000a0 80 52 7e 3d 6b 57 4b bc 9c cd 48 bc 70 f6 e6 bd
       0.062090397 -0.012410979 -0.012256052 -0.11277473
0000b0 c9 54 0e 3e ec 23 6a be 6c 44 bc bd e1 58 5c 3c
       0.1389953 -0.22865266 -0.09192738 0.013448925
0000c0 99 e6 23 be 01 b7 18 be 18 d2 93 bd bf 26 5f be
       -0.16005935 -0.1491356 -0.072178066 -0.21792124
0000d0 c0 ad 9d be fa aa 3a 3e f5 50 33 bd 85 aa f8 bd
       -0.30796623 0.18229285 -0.04377838 -0.12141899
0000e0 07 ba 3f be e1 dd e8 bc 1d 06 1c be 22 d1 2e be
       -0.18723308 -0.028426113 -0.15236707 -0.17071965
0000f0 2c 4d 50 bc d9 bf e7 bd d0 06 42 be b4 a2 50 bd
       -0.012713712 -0.11315889 -0.18947911 -0.050936416
000100 bf 2b 5d 3e 44 d3 b5 3e ef c6 49 bf 16 b4 88 3e
       0.21598719 0.35512745 -0.78819174 0.26699895
000110 54 d3 d5 3c c5 31 86 3d f8 17 bd bd 77 9f 04 3e
       0.026101746 0.065524615 -0.09233087 0.12951456
000120 c2 fb 69 bd aa 5e 0b be ef ac a2 3d c6 c5 3d 3e
       -0.05712486 -0.1361033 0.07943141 0.18532476
000130 e3 60 7a be 1a cd a9 bd a9 07 78 bd f8 26 d1 3d
       -0.24451022 -0.08291073 -0.06055418 0.10212511
000140 5b f5 94 3d 78 58 aa bd 9b 90 16 be 67 ca 07 bd
       0.0727336 -0.08317655 -0.147036 -0.03315201
000150 42 7d 9b 3c 3f 87 70 be a5 b6 9b 3d 05 7f 2d 3e
       0.018980626 -0.23489092 0.07603196 0.16942985
000160 fe c4 b3 3d 19 3e bf 3d ef 6f 96 3d 7a a5 5c 3e
       0.08777808 0.09338016 0.073455684 0.215475
000170 47 33 d6 3d df 3e a1 be 9f 62 c4 bc 02 44 7c be
       0.10458999 -0.3149328 -0.023972807 -0.24635318
000180 95 a1 5d bd 2c 7f 7d 3d 7b a4 5e 3c c4 5d d8 bd
       -0.054109175 0.06188886 0.01358902 -0.105647594
000190 08 55 08 3b 59 e3 10 3e 4c b7 5a 3e 04 9c c4 bd
       0.0020802636 0.14149226 0.21358985 -0.0960007
0001a0 e1 dc 93 3b 0a 3b dc 3e 03 9c 22 be d1 20 cd 3c
       0.004512415 0.43013793 -0.15879826 0.025040062
0001b0 17 87 eb bd 8b f8 43 be fe 1e e7 bd b0 03 7f 3d
       -0.11500376 -0.1913778 -0.11285208 0.062259376
0001c0 15 a7 e9 bc fd 11 06 be bb 82 0b be 9e d7 4e 3c
       -0.028522054 -0.130928 -0.13624088 0.012624649
0001d0 ce be 09 be 49 96 90 bd 0b d1 3b 3d 61 ec 04 3d
       -0.13451692 -0.070599146 0.045853656 0.03245199
0001e0 40 ac eb 3c 52 5d 23 be ec 02 2a 3d 41 6b 2d 3d
       0.028768659 -0.15953568 0.041506693 0.042338613
0001f0 2c 2c 66 bd 59 4f a8 3d d9 76 2f be b3 38 6b 3d
       -0.05619447 0.08218259 -0.1713518 0.05742712
000200 88 a2 5b be 11 80 5a be 54 87 8a bd c3 13 6e be
       -0.2144872 -0.21337916 -0.06764093 -0.23249726
000210 fa bc a9 3d 89 94 8a 3d 15 09 0f bd 8f 85 c1 3d
       0.082879975 0.06766612 -0.03492077 0.094493024
000220 ef da e6 3c 7e 07 4e bd c5 65 c1 3c af 2f a8 3d
       0.028180568 -0.050300114 0.023608098 0.0821222
000230 fb 67 36 3d 28 6e 14 3e d4 d7 e6 bd 5c ab 9d 3d
       0.044532757 0.14495146 -0.11271635 0.076987
000240 1e 97 44 be bc 0f 55 3e a1 93 da bc 2d f5 45 bd
       -0.19198272 0.20806783 -0.026681723 -0.04832952
000250 84 33 1a be 95 00 e2 3d 0b 86 94 3b 62 d4 25 3d
       -0.15058714 0.11035267 0.0045325807 0.040485747
000260 e8 1f d4 3d fe 51 84 3e 90 1b 4e 3e 32 cd ad 3e
       0.10357648 0.25843805 0.20127702 0.33945614
000270 2a 58 52 3e a7 48 97 3e aa 07 5e be f4 c6 b7 bc
       0.20541444 0.29547617 -0.21682611 -0.022433735
000280 b3 8e 86 3d 50 22 08 3e 24 0b 63 be a8 88 1c 3e
       0.065701865 0.13294339 -0.22172219 0.15286505
000290 18 bd 12 3d 4b eb 0d 3e be 6e 81 3d f9 16 22 bd
       0.035824865 0.13859288 0.063199505 -0.03957269
0002a0 64 7a 1f 3e d5 dc 15 bf ee 29 68 be 4b b7 43 bd
       0.15574032 -0.5854009 -0.22672245 -0.047782224
0002b0 72 a0 17 bd 8b 29 52 bd 57 b1 fa bc 69 da 1b bd
       -0.037018247 -0.05130915 -0.03060214 -0.03805009
0002c0 e8 b6 af 3d b1 f7 6b be 07 22 2c 3e d6 c6 9c ba
       0.085798085 -0.23043706 0.16809855 -0.0011961113
0002d0 ab 59 bb 3d 2c 97 0d 3d 7b 9a 32 bd 23 96 c2 bd
       0.09147962 0.034567997 -0.043604355 -0.095012926
0002e0 94 bb d1 3c 08 c4 2d be 60 43 5e 3e 4b 43 b6 bd
       0.02560214 -0.16969311 0.21705389 -0.08899554
0002f0 3f 99 2a 3d f9 9e 89 bd 83 c3 d6 3e f5 cd 45 3e
       0.041650053 -0.06719775 0.4194604 0.19316848
000300 f5 52 58 bc ad 52 f6 bd 2c e2 5f 3d 6d cf da 3d
       -0.013203372 -0.12027488 0.054659054 0.106840946
000310 ae d7 09 3c af 77 4c be b5 9f e3 bd 13 10 0a 3e
       0.008413238 -0.1996753 -0.11114446 0.13482694
000320 51 70 b3 be 29 d6 38 bd 15 d9 0f 3d 68 3d 3d 3e
       -0.35046628 -0.045126114 0.035119135 0.18480456
000330 c0 4d 7f bd d7 07 70 3e fa 3c 8a bd 9a 03 fd 3d
       -0.062330008 0.2344049 -0.067499116 0.123542026
000340 a1 75 a3 3c 9a 67 15 bd c7 01 0b be 3a eb 90 bd
       0.01995355 -0.036475755 -0.13574897 -0.07076116
000350 e6 37 9d 3d f0 90 18 3d b2 12 68 bd ef 40 ee bd
       0.076766774 0.0372476 -0.056658454 -0.11633479
000360 13 82 f9 3c f0 31 55 be 5c 06 d3 3b 6d 40 88 bc
       0.030457532 -0.20819831 0.006439967 -0.016632283
000370 9e 7c 86 3d ce d5 01 be ab 4f 2d 3e 35 1a 58 bd
       0.065667376 -0.12679216 0.16924922 -0.052759368
000380 69 90 b1 ba 57 b1 bb 3c 46 d4 d0 3c c3 84 d2 3d
       -0.0013547066 0.02291171 0.025491845 0.102792285
000390 9f 12 9f be d5 60 60 3e 34 e8 f1 3e a1 c8 1f bd
       -0.31068894 0.21911938 0.4724747 -0.039009694
0003a0 0d f3 d8 3d 6d f8 04 be 27 a1 7d 3d 2d bd d3 bd
       0.10593233 -0.12985392 0.061921265 -0.10338817
0003b0 a9 39 ca bd dc 19 27 bb 56 96 3b bd 71 28 4b be
       -0.09874279 -0.002549759 -0.04579767 -0.19839646
0003c0 97 e5 18 3e 73 f7 1b bd 76 d1 1f be aa 6d 83 bd
       0.14931332 -0.038077783 -0.15607247 -0.06417401
0003d0 01 74 08 3e dc 2a 86 be da 52 67 be f1 91 d7 3c
       0.13325502 -0.26204574 -0.22590199 0.026314707
0003e0 5b e4 36 bd 2c c3 b4 be 3c 0e cd bd 38 79 b2 3e
       -0.04465137 -0.35305154 -0.100124806 0.34858108
0003f0 ea 49 4d be 98 fa 71 3d 4a 61 3c be e5 a5 32 be
       -0.20047727 0.059076875 -0.18396488 -0.17446096

fc2.bias f4 [64]
000000 93 dc cc bd 4a f7 6c 3c 00 29 1e 3e e5 c7 5a bc
       -0.10003009 0.014463255 0.15445328 -0.013353323
000010 18 f5 d5 3d 1e 1d 62 be 9c a3 a8 3c 04 2a ae 3c
       0.104471385 -0.2208142 0.020585828 0.021260269
000020 e2 09 a0 3e 24 0a f6 3e 2f b6 0a be 2b 2f 89 3e
       0.3125754 0.48054612 -0.1354606 0.267938
000030 48 e9 77 3d 37 2d b8 bc 5a 90 40 be 24 39 1b 3e
       0.06052521 -0.022482498 -0.18805066 0.15158516
000040 46 7c 04 bd 0c bd f8 bd 92 18 07 bd 50 79 41 3e
       -0.03234508 -0.12145433 -0.032982416 0.18893933
000050 1f a3 55 3e 91 45 e8 3e c6 b9 47 be 2e 35 06 be
       0.20863007 0.45365575 -0.1950446 -0.13106224
000060 ae 51 81 bc d3 21 ec bd 02 da b2 3d 3f 81 0f be
       -0.015786018 -0.11529889 0.08732988 -0.14014147
000070 e8 70 57 bd 51 2f 87 3e e4 0f c3 3d 4a cb ff 3c
       -0.05259791 0.26403287 0.09524515 0.031224865
000080 df ab 19 bd 7e 9b 6e 3e 44 38 72 3e 45 0d 51 bc
       -0.037517425 0.23301503 0.23654276 -0.012759511
000090 59 09 a8 bd 47 f8 57 be 04 5e d3 3e f2 e1 d9 3c
       -0.08204908 -0.21090804 0.41282666 0.026596997
0000a0 ed 44 55 be d1 94 0c 3f 22 7c a7 3e af a0 08 bd
       -0.20827074 0.54914576 0.32711893 -0.033356365
0000b0 14 08 f8 3d 25 0c 13 be 0a 9d 66 3b 55 1a 07 be
       0.12110916 -0.14360102 0.0035188817 -0.13193639
0000c0 0e 16 75 3c b0 86 70 bd b0 3d ef bd 56 5d ce 3e
       0.0149588715 -0.058722198 -0.11681688 0.40305585
0000d0 32 69 45 3c 19 f1 b8 bd 8b 22 b4 3e c3 b7 23 bd
       0.012049006 -0.09030361 0.35182604 -0.03997017
0000e0 ed 8f 06 be 98 fe e1 bd 3d e3 23 bd 6d 20 15 be
       -0.13140841 -0.11034888 -0.040011633 -0.1456315
0000f0 4b ca 33 3d 50 15 57 3e 23 fa b6 bd 69 f3 a1 bc
       0.043894093 0.21004224 -0.089344285 -0.019769387

fc3.weight f4 [4, 64]
000000 1f 6f b3 bd 3d 53 cc 3d a0 3d 1f 3e d9 72 98 bd
       -0.08761429 0.09976814 0.15550852 -0.074437805
000010 26 d4 36 3e 84 d1 4b be ec e2 e4 3e 71 4c 89 be
       0.17854366 -0.19904143 0.44704378 -0.26816133
000020 5a 67 d4 3d 83 ae 12 3e 6d 9a 45 be 14 b4 4b 3e
       0.10371275 0.14324383 -0.1929719 0.19892913
000030 aa 95 31 3e 79 a8 35 3d f8 b7 b5 be 3b 04 0f be
       0.17342249 0.04435012 -0.3549192 -0.13966458
000040 f0 09 03 bd 95 12 9f 3c 05 81 2b bd 3e 4e 56 3e
       -0.0319919 0.01941804 -0.04187109 0.20928285
000050 23 bd 8e 3e 43 b1 07 3e e8 c7 bb bd f8 8f 0f be
       0.27878675 0.13251214 -0.091689885 -0.14019763
000060 02 22 73 bd ae 31 a2 bd a9 39 13 be ba 52 f8 3d
       -0.059358604 -0.07919632 -0.14377464 0.12125154
000070 6f f1 d3 3e cf 04 94 3e 30 e6 d1 be e5 ce af 3d
       0.41395137 0.2890992 -0.40995932 0.08584384
000080 0d 38 ea 3d 93 1a 38 3e af 93 00 3e 4d e2 4d 3e
       0.11436472 0.17978887 0.12556337 0.20105858
000090 23 57 aa 3e 24 37 32 3c da cc 16 3e 28 d2 9f 3e
       0.33269605 0.010877404 0.14726582 0.31215024
0000a0 f9 92 28 be ac 52 3e 3e 53 38 26 3e 9f df 5a 3b
       -0.16462316 0.18586224 0.16232423 0.0033397449
0000b0 fa 03 a0 bc 2a 74 55 be 96 d0 1a 3e 89 93 7c 3e
       -0.019533146 -0.20845094 0.15118632 0.24665655
0000c0 00 f3 c0 3d 0d d6 0b 3e ef 6f 68 bd e9 1a a5 3e
       0.094213486 0.13655873 -0.056747373 0.32247093
0000d0 52 bd 83 3e c4 13 99 be f0 96 23 3e 85 fc 24 3d
       0.25730377 -0.29897892 0.15975547 0.040279884
0000e0 ed 37 be be a0 91 7a 3e 45 d6 da 3b 09 ff 2e bc
       -0.37152043 0.24469614 0.006678375 -0.010680922
0000f0 22 9e af bb fc e4 16 3e e2 57 d0 bd 18 1d ed 3e
       -0.005359427 0.14735788 -0.10173012 0.4631126
000100 77 dc 00 3f 6e 43 36 3e 86 78 24 3e 77 38 76 be
       0.503364 0.1779916 0.16061601 -0.24044977
000110 44 5c 14 3e 7b 37 0f b9 81 06 07 3f 9f b0 82 be
       0.14488322 -0.00013658211 0.527443 -0.25525376
000120 e6 a6 fd 3c 49 ed 2e 3e 84 59 31 be 23 16 10 3e
       0.030963372 0.17082705 -0.17319304 0.14070944
000130 ab 4b a6 3d 82 68 53 bd d8 74 99 be dc 5d 92 bc
       0.08119901 -0.05161334 -0.29971957 -0.017867021
000140 5f 19 d4 bd 68 98 a3 3e b7 74 55 be 4a 24 da 3d
       -0.10356402 0.31952214 -0.20845304 0.10651453
000150 0e d5 5d 3e 6a 34 69 3e 43 27 eb bd c0 a8 ad 3c
       0.21663305 0.227739 -0.11482098 0.02119863
000160 7a 5e d0 3d d5 b2 5c bc 08 76 b3 bd a2 ad 16 3e
       0.1017427 -0.013470371 -0.08762747 0.14714673
000170 f9 b4 05 3f 61 32 3c 3e 46 7f 50 3e 6d 62 42 3e
       0.5222927 0.18378593 0.20361051 0.18982859
000180 63 e5 a2 3e 70 9d e6 3d a4 cd 27 3e 1a be df 3e
       0.31815633 0.112604976 0.1638704 0.43699723
000190 05 45 8f 3e b0 86 85 be dc c1 11 3e f3 b6 9c 3e
       0.27982345 -0.2607932 0.14234108 0.3060833
0001a0 cf c1 af bd c1 6c 40 3e ce 8b aa 3d c8 c4 0e 3e
       -0.08581888 0.18791486 0.08327447 0.13942254
0001b0 5e 77 9a 3e dc a8 7d be f4 13 13 3e de d0 55 3e
       0.30169195 -0.24771446 0.1436308 0.20880458
0001c0 09 3b a8 be da 4c 10 bd 8f 3c f8 bd 45 ad 81 3e
       -0.3285754 -0.03522954 -0.12120926 0.25327507
0001d0 4f 72 55 3e 2a 18 6b bd ed 55 31 3e fb 59 82 3d
       0.20844387 -0.05739609 0.17317934 0.06364819
0001e0 08 55 7f be 12 06 f9 3c 79 ed 5b 3d b9 45 83 3c
       -0.2493478 0.030398402 0.05369327 0.016024457
0001f0 31 2a 8b bc 75 b3 86 bc 30 59 61 be 43 88 cf 3e
       -0.016987892 -0.016442994 -0.22006679 0.40533647
000200 b2 b0 41 bc 37 d6 2c 3e 79 0b 60 3e 1e 62 82 3e
       -0.011821913 0.16878591 0.21879376 0.25465482
000210 ac 30 5d 3e 6e 03 2e 3d b1 75 9a 3e 43 f2 9c bd
       0.21600598 0.04248374 0.30167916 -0.07663395
000220 60 78 fa 3d 46 fd 1b 3e da 9a dc be 33 51 46 3e
       0.12229991 0.15233335 -0.43086892 0.19366913
000230 62 cb 08 3e 9d d9 d9 be 4e ae 1c be 65 6d 74 3e
       0.13358834 -0.42548838 -0.15300867 0.23869856
000240 c3 3a 7f 3c c4 e8 a1 be a5 29 8c be 73 42 be 3d
       0.015577975 -0.316229 -0.27375522 0.09290018
000250 7c d7 30 3e 9f 60 83 3e ae fe 96 be 62 12 a5 3d
       0.17269701 0.25659654 -0.2949118 0.08060147
000260 15 79 59 3e e0 ff aa bd 0e ee 04 bf 75 5f 21 be
       0.21237595 -0.083495855 -0.5192574 -0.1575907
000270 22 15 39 3f 16 96 4a 3e e2 98 02 bd 74 74 c0 3c
       0.7229787 0.19783816 -0.03188408 0.02349303
000280 49 82 e2 bd ed ad 1e 3e a8 19 59 3e b9 1d 08 3f
       -0.11060006 0.15496035 0.21201193 0.53170353
000290 4b ca 06 3f 81 67 03 3e 54 aa 07 3e a2 92 bb 3a
       0.52652425 0.12832452 0.13248569 0.0014310668
0002a0 23 71 54 3e 26 0e 43 3e 82 0a 32 3e f0 6f fe 3e
       0.20746283 0.19048366 0.17386821 0.49694777
0002b0 19 a8 c1 3e 3a 64 6c be a7 a3 38 3d 11 82 ce 3e
       0.3782356 -0.23085108 0.045077946 0.40333608
0002c0 25 fd f3 3d fa 64 dd bd 3c 96 b3 be e0 36 a3 3e
       0.11913518 -0.108102754 -0.35075557 0.31877804
0002d0 94 d6 8c 3d 52 a6 cd 3b 6c fe 0c 3e 9b 57 c6 3d
       0.06876865 0.0062759304 0.13768929 0.09684678
0002e0 b7 56 17 be 0d 00 0d 3e 13 15 98 bd f7 01 8b be
       -0.14779173 0.1376955 -0.074258946 -0.27149937
0002f0 5d f5 29 be 78 52 e2 3d 6e db 0f 3c fd 2b aa 3e
       -0.16597505 0.11050886 0.008780343 0.33236685
000300 ad 42 01 be ce a0 8c 3e 26 99 e8 3d 2a 48 84 be
       -0.12623091 0.27466434 0.11357336 -0.25836307
000310 52 5d 46 bd f7 33 b0 3d 88 a5 5b 3e 90 86 98 be
       -0.04842884 0.086036615 0.21449864 -0.29790163
000320 f8 b9 11 3e 5e bd 5c 3e 09 e5 2a be 0c 88 8d 3c
       0.14231098 0.21556613 -0.16688932 0.017276786
000330 8c f7 10 3e 91 e2 0d 3e 35 de 0a be b6 cb c5 bc
       0.14156932 0.1385596 -0.13561328 -0.024144989
000340 72 70 f0 3d ee d6 46 3e 71 1e f4 bd 18 13 03 3e
       0.11740197 0.19417927 -0.11919869 0.12800252
000350 a0 d9 dc 3d 29 00 8f 3e c1 f5 28 3d 05 a7 e5 3e
       0.10783696 0.2792981 0.041249994 0.44853988
000360 71 a4 14 3c 58 00 51 be 74 c3 cc 3d 7e 89 3b 3d
       0.009072409 -0.20410287 0.09998217 0.04578542
000370 4e 1b 4f 3e 4e 13 7b 3d f8 ee 9d 3e f1 35 d9 3d
       0.2022526 0.061297707 0.3084638 0.10605992
000380 a0 9c ca 3d 10 f5 4f 3e 67 a0 99 3b 7c 56 e1 3e
       0.09893155 0.20308328 0.004688311 0.44011295
000390 56 6a 9a 3e 73 fd 25 3e 2e ff 7b 3e 0b b6 b8 3e
       0.30159253 0.16209964 0.24609062 0.36076388
0003a0 4e 9b d7 be f8 66 5f 3e 71 1b 1c 3e 92 79 32 be
       -0.42110676 0.21816623 0.15244843 -0.17429188
0003b0 c9 8f 6c 3e a4 b1 a8 be e4 38 77 3e 1f 30 5c 3e
       0.23101725 -0.3294803 0.24142796 0.21502732
0003c0 5f 65 c7 bc 4a 5c c6 bd 09 e4 a3 bd 54 39 d4 3e
       -0.02434033 -0.096855715 -0.08002479 0.41449988
0003d0 e2 fd af 3d 8b d7 1a be 94 96 00 3e 49 85 e9 3e
       0.08593346 -0.15121286 0.12557441 0.456095
0003e0 b1 df b6 be 3b 88 97 be 6d 21 35 be a8 f9 56 be
       -0.35717538 -0.29596123 -0.17688532 -0.20993674
0003f0 09 31 b7 be 46 c8 9b 3d f0 94 21 be 06 16 ee 3e
       -0.35779598 0.076065585 -0.15779471 0.46501178

fc3.bias f4 [4]
000000 2c 9b 9e 3e d8 ae a4 3e 25 a2 48 3e 8a 1b 55 3e
       0.30977762 0.32164645 0.19593103 0.20811287
