DWAM.pth (torch_old, 28333 bytes, 6 tensors)

fc1.weight f4 [64, 37]
000000 5d d1 7d 3e fa 2a bb be 68 6a aa be a8 79 68 be
       0.24786897 -0.36556226 -0.33284307 -0.22702658
000010 27 b1 20 bf d3 fe 5b 3c f0 c5 9e bd 9a e2 30 3e
       -0.62770313 0.013427454 -0.07752597 0.17273942
000020 e0 ef d9 3c 12 30 59 3e 09 5e 51 be ce ac 91 3b
       0.02660364 0.21209744 -0.20446028 0.0044456488
000030 bf 39 ef bd ba 1c 23 be 59 24 93 3d 49 c0 b4 3d
       -0.11680936 -0.15928927 0.07184667 0.08825738
000040 e4 70 60 bc 40 c5 82 bd 14 08 1f be 69 95 bf be
       -0.01369879 -0.06385279 -0.15530425 -0.37418678
000050 ea 58 bb 3c 9f af 8c 3d fa 3e dd 3c 0e ec 78 3b
       0.022869546 0.068694346 0.027007569 0.0037982496
000060 0d f8 a7 3d 8c 04 15 be aa e3 a5 3e cb 88 0a be
       0.08201609 -0.14552516 0.32400256 -0.13528745
000070 e4 20 8a be eb a9 f5 3d 9d 0e c8 bd 1e 39 06 3d
       -0.2697822 0.119953 -0.09768412 0.032769315
000080 f7 85 73 bd e8 d7 5e 3b c5 69 4f 3d 40 60 7b bd
       -0.05945393 0.0034003202 0.05063798 -0.061371088
000090 55 94 23 bc eb 85 44 3e 15 0f f9 3d 33 9a 13 bd
       -0.009984096 0.1919171 0.1216108 -0.036035728
0000a0 2f 69 3b bc c2 64 20 be 1f 1a 83 bc 6c f5 18 be
       -0.011438652 -0.15663436 -0.016003666 -0.14937371
0000b0 72 54 dd bd 0c c5 49 3c 4a 60 2f 3e 99 92 4f 3e
       -0.10807122 0.012315046 0.17126575 0.20270766
0000c0 c3 83 de bd eb 6d 09 bd da 9b 69 3d 68 ef 3b bc
       -0.10864975 -0.03355209 0.057033397 -0.011470653
0000d0 a6 6b 78 3e 6b c3 c7 bd a2 35 9a bd e2 9c 4f be
       0.24259815 -0.0975407 -0.07529761 -0.2027469
0000e0 eb 73 f1 be 86 b9 87 bd e9 33 28 bd 05 72 42 be
       -0.4715875 -0.06627183 -0.04106513 -0.18988807
0000f0 28 d2 0a 3c 14 5f ad 3d 7c c3 11 3d ef 47 a1 3c
       0.008472957 0.084654 0.03558682 0.01968762
000100 e8 57 96 bc 89 6a 29 be 14 8f 83 be a5 78 ff 3d
       -0.018352464 -0.16544546 -0.25695097 0.12474183
000110 91 04 33 3d c2 a5 1f 3e 9c b9 83 bd 6f e2 a5 3b
       0.043705527 0.15590575 -0.064318866 0.0050623934
000120 ba e5 09 bd 31 aa 13 3d e4 13 01 bd f3 57 97 3e
       -0.03366635 0.03605098 -0.03151311 0.29559287
000130 cd 4e 6e 3d 2a 1e 19 3d cb 7b 7e bd 29 2f 26 be
       0.05818062 0.037382282 -0.062129777 -0.16228928
000140 4c bd a4 3b 70 c3 2b 3e 62 13 c2 3d 9c 39 e0 bd
       0.0050274488 0.16773772 0.09476353 -0.10948488
000150 89 77 51 3e 06 ad 07 be 9c c0 ec bd 7f b4 0c bd
       0.20455755 -0.13249597 -0.11560175 -0.034351822
000160 05 9e 48 bd 60 17 29 be 90 58 14 3e ab 07 1f 3e
       -0.048978824 -0.16512823 0.14486909 0.15530269
000170 59 ce 75 3d d0 c8 5c bd 87 7e 72 bd c5 29 fb bd
       0.06001124 -0.053902447 -0.059202697 -0.12263826
000180 40 78 e8 3b 16 d6 d5 3d b2 bf 31 be c5 7d 6d be
       0.007094413 0.10441224 -0.17358282 -0.23192509
000190 67 dc 84 3e 51 d7 33 3e e1 9e 81 bc 86 6d cf bd
       0.25949404 0.17562605 -0.01582283 -0.10128312
0001a0 e3 34 c2 bd 08 22 d1 3d 0a 59 ab bd ba b3 74 be
       -0.094827436 0.10211569 -0.08366592 -0.23896685
0001b0 b3 c0 98 3c 3c e5 80 3c 1d aa 8f 3b 1a 23 9f 3e
       0.018646574 0.015734307 0.0043842928 0.31081468
0001c0 9c 2d f6 be 49 a4 5f 3d 11 8b aa bd c1 36 25 bf
       -0.48081672 0.054600034 -0.08327306 -0.6453667
0001d0 3a 22 20 be fa ae 90 3d 83 da 8d 3d 48 e5 95 3d
       -0.15638056 0.07064624 0.069264434 0.073191226
0001e0 90 b3 98 3e 11 aa 34 3d 0f 3b da bc 99 b4 ac bb
       0.29824495 0.0441075 -0.02663949 -0.0052705524
0001f0 ed 6d 7a be 41 61 80 bd 29 22 9d bc 26 85 b8 3c
       -0.24455996 -0.0626855 -0.019181328 0.022524428
000200 b8 8b c4 bd bc fa 9f be d5 83 a1 be b4 93 3d bc
       -0.09596962 -0.31245983 -0.31545892 -0.01157086
000210 1b ed 13 be c2 a7 80 3d e4 09 c5 3d 11 6a 54 3c
       -0.14445917 0.06281997 0.09621027 0.012964741
000220 41 6a 55 bd ca bb b4 3d 6f 7f 1c be f4 2c 11 3e
       -0.052103285 0.088248804 -0.15282987 0.14177305
000230 78 91 8a 3e b3 a6 22 3d 2a b9 b2 3d 6c 7c bc bb
       0.2706411 0.039709758 0.087267235 -0.005752137
000240 7d f1 1e bd 9c c5 a0 bc ae 08 64 3d d5 33 42 ba
       -0.03880452 -0.019625477 0.05567234 -0.0007408236
000250 de b0 16 be 6d 09 ad bd e3 c4 43 be 05 08 c4 bd
       -0.14715907 -0.084490635 -0.19118075 -0.09571842
000260 2b 77 20 3c 08 94 d3 3d 35 19 0e 3d e0 02 d6 bd
       0.009794037 0.10330969 0.034692008 -0.10449767
000270 cf 33 d1 bd ed 50 aa be 7e 10 da 3d a9 55 1b be
       -0.1021496 -0.33264866 0.10647677 -0.15169396
000280 f5 32 b7 bd 4c b0 1d be 12 51 d7 be 24 f4 86 be
       -0.08945266 -0.15399283 -0.4205404 -0.2635814
000290 58 d7 b0 3d 6f 38 17 bc ba 83 fd bb 0d 03 77 3e
       0.086348236 -0.009229763 -0.0077366503 0.24122258
0002a0 de 2c ae bd 6c 33 0e be 12 46 fb 3d 5e bd 2e bd
       -0.085046515 -0.13886803 0.12269224 -0.042661063
0002b0 ad 0c 1c 3e 5c 1b 0a ba 82 4c 03 3d 44 66 b3 3d
       0.1523921 -0.0005268359 0.032055385 0.0875974
0002c0 90 22 01 bd 37 ba a4 bd 6f 2b 8d 3d a6 3e 3d be
       -0.031527102 -0.0804333 0.0689305 -0.1848093
0002d0 80 6a d2 3d f2 8f 59 3c 1c 83 47 3e 85 91 9f 3b
       0.102742195 0.013278948 0.19483608 0.004869642
0002e0 3d f9 c0 3c 01 fb 58 3d f2 27 ac bc e9 ef d1 bc
       0.023556346 0.05297375 -0.021015141 -0.025627093
0002f0 30 3d f8 bd bd bf cf 3d 26 51 73 3e 02 35 d6 3d
       -0.121210456 0.10143993 0.23761424 0.10459329
000300 02 1b 05 be d8 96 c6 bc 51 43 08 bf e7 dc 9f bd
       -0.12998584 -0.02424185 -0.53227717 -0.07805806
000310 03 2c 06 be 67 b9 d9 3c d0 69 3e 3d f4 2e 05 3e
       -0.13102727 0.026577665 0.04648763 0.13006192
000320 09 3c 9a bc a5 2a 1d 3d 87 7f f7 bd 57 07 cc 3d
       -0.018827455 0.038370747 -0.12084871 0.099623375
000330 9e f8 33 be 57 06 e4 3d 55 27 50 bd 3d 4b 24 3e
       -0.17575309 0.11134022 -0.05081876 0.16044326
000340 3f ca b3 3d 0c fa 9f 3e a1 e6 84 3c 2d f0 27 3e
       0.0877881 0.31245458 0.016223254 0.16400214
000350 e3 8b c8 bd b3 df b7 bd 3b d3 c8 bd 52 39 d3 bd
       -0.09792306 -0.08978214 -0.09805914 -0.10313667
000360 fc a1 f9 3d 56 1e f5 bd 2a 67 8c 3e 7b da be 3d
       0.12189099 -0.11968677 0.27422458 0.093190156
000370 38 d2 fe bc 73 17 9d 3d df 8d 60 3c d2 05 3a 3e
       -0.0311061 0.07670488 0.0137057 0.18166283
000380 58 33 96 be b7 e9 76 3d bf 9c 34 bd b6 1c cc bd
       -0.29336047 0.06028148 -0.044094797 -0.09966414
000390 80 84 f6 3d e9 a0 d8 bd 3c 28 59 be 99 d0 5b 3e
       0.12036991 -0.10577566 -0.21206754 0.21466292
0003a0 49 52 9f 3d 78 89 2f 3e 11 fe 34 bd 5c 58 17 bd
       0.077793665 0.17142284 -0.04418761 -0.0369495
0003b0 98 4c 56 3e 80 66 8c be e1 49 81 3d b2 a7 a2 3c
       0.20927656 -0.2742195 0.063129194 0.019855354
0003c0 52 f8 01 3e 06 e1 7b bd 81 a0 e0 bd de 39 05 3e
       0.12692383 -0.061493896 -0.10968114 0.13010356
0003d0 d8 12 a1 bc 0c 09 a7 bd cc 6d 1b 3e 98 43 54 be
       -0.019662306 -0.081560224 0.15178603 -0.2072891
0003e0 c7 90 97 3d 80 07 e4 bd 78 74 8e 3c d9 1d 01 3d
       0.07400661 -0.11134243 0.017389521 0.031522606
0003f0 6d 95 a2 3d 7a 9c 41 3d 56 f0 30 be f7 a2 26 bd
       0.07938657 0.04726837 -0.17279181 -0.04068276

fc1.bias f4 [64]
000000 17 85 b3 3d 5f 7e b7 bc 40 b2 b3 bd ea 83 67 bd
       0.08765619 -0.022399126 -0.08774233 -0.056522287
000010 da 11 08 3e c9 77 02 bd b7 f6 84 bd 60 82 bf 3d
       0.1328806 -0.031852517 -0.064923696 0.09351039
000020 4b b4 5e 3d ad b7 5a be 6d 9f 00 3e 0a 6e 57 3e
       0.05437116 -0.21359129 0.12560816 0.2103807
000030 d4 83 f5 3d 19 1d a1 3d 63 b9 03 bd c3 2d 77 bd
       0.11988035 0.07866878 -0.03215922 -0.060346376
000040 7b 9c 4f 3d d7 4c c9 ba 50 21 18 bc df 17 1d be
       0.05068634 -0.0015357983 -0.009285286 -0.15341137
000050 d2 66 fe bd 23 8d e9 3c 5d a4 1a 3d 92 23 83 bd
       -0.12421955 0.028509682 0.037754405 -0.06403269
000060 4e 87 1b be 13 38 16 3e ad 8b 8f bd 44 65 4c bd
       -0.15188333 0.14669828 -0.07009063 -0.049901262
000070 8d 00 54 3e ee 54 a8 3d a8 86 72 bd 33 e1 0c be
       0.20703335 0.08219324 -0.05921045 -0.13757782
000080 a8 dc 39 3e 25 76 9a 3b 15 b0 2b be e7 9d 05 bd
       0.1815058 0.004713791 -0.16766389 -0.03262129
000090 72 c2 5f bd 83 95 71 3d 8f cf 53 bd c2 d4 03 be
       -0.054628797 0.058980476 -0.051711615 -0.1287413
0000a0 1f 62 54 bd 92 1c b1 3c f0 47 6b bd 2d 74 3d 3e
       -0.051851388 0.021620069 -0.05744165 0.18501349
0000b0 14 c4 1c bd c3 e4 aa bd f7 5e 9b 3b b2 d0 45 be
       -0.038272932 -0.08344414 0.0047415453 -0.19317892
0000c0 72 89 d5 bd 85 01 0d 3d c0 54 14 be d5 88 05 bd
       -0.10426606 0.034425277 -0.14485455 -0.032601196
0000d0 de e0 8a bd 02 c6 1b be 8b 65 0f be 13 12 7d 3c
       -0.06781171 -0.15212253 -0.1400358 0.015446204
0000e0 d3 7b 9e 3d 19 62 00 bd aa 7c 92 bd 4e 79 ce bd
       0.07738461 -0.031343553 -0.07152684 -0.10081731
0000f0 8d 6e 03 3d ed c6 55 3d 13 53 ad 3d 2e 39 f0 3c
       0.03208785 0.052191664 0.08463111 0.02932414

fc2.weight f4 [64, 64]
000000 10 7c ae 3d a8 c0 a5 3d 38 ff c6 3d d6 a4 27 3e
       0.08519757 0.08093387 0.09716648 0.16371474
000010 49 b9 1b 3e 39 aa c8 bd 30 32 29 be 42 43 79 bc
       0.152074 -0.097980924 -0.16523051 -0.015213789
000020 66 04 98 3c 10 54 70 be 34 45 c1 3d 02 79 9c be
       0.018556785 -0.23469567 0.094370276 -0.30561072
000030 55 a8 76 be 6c de 27 3e 7a 13 b0 be 41 e9 0d be
       -0.24087651 0.16393441 -0.3438986 -0.1385851
000040 b3 10 26 be 4c 58 0b be 31 8e 3e bd 97 49 75 3d
       -0.16217308 -0.13607901 -0.046522323 0.059884634
000050 c3 d6 df bd 66 72 46 be b7 34 08 3d b3 1d 15 bd
       -0.109296344 -0.19379577 0.033253398 -0.036405277
000060 c9 e2 ed bd 58 fb be be 8e fc 82 3e cb 30 83 bd
       -0.116155215 -0.37301135 0.2558331 -0.06405791
000070 58 a3 f9 bd 48 94 19 be 50 3f 3d be 86 40 9c bd
       -0.121893585 -0.14997971 -0.18481183 -0.07629494
000080 7d c8 8a 3d 5f d7 e3 3d 16 bd f1 3c a7 3b 8b bb
       0.06776521 0.11125063 0.029509109 -0.0042490545
000090 2b 2d bf bd ea 75 75 3c c5 e6 76 3e 99 4d 7d 3b
       -0.09334787 0.014981726 0.24111469 0.0038650988
0000a0 3f 9a 16 be 03 65 8a bd d6 a8 5a 3d 43 7c 53 bd
       -0.14707278 -0.06757548 0.05338367 -0.051632177
0000b0 c1 41 ba 3d d4 45 13 be 6c 21 15 be c2 17 05 3d
       0.09094573 -0.14382106 -0.1456353 0.03249336
0000c0 52 14 0d be 37 e7 d7 bd bd d6 46 be 07 30 aa bd
       -0.13777283 -0.105421476 -0.19417854 -0.08309942
0000d0 d9 26 03 be fb ed 33 3c 0a fc 93 bd 13 e9 0a 3d
       -0.12807788 0.010982032 -0.07225807 0.033913683
0000e0 61 6c ec bd c1 95 d5 bd 4e e9 88 be 8b 2d 4c bd
       -0.11544109 -0.10428954 -0.26740497 -0.04984812
0000f0 cc 1f b8 bc b4 b5 b1 3d 7b 05 3f be 1f eb 26 be
       -0.0224761 0.08677235 -0.18654434 -0.16300629
000100 dc 5c 3f 3e 41 af 4c 3e 0a b2 03 bf fa 42 a6 3e
       0.18687767 0.19988729 -0.5144354 0.32472974
000110 27 5d e4 3a 05 ed bb 3d 7b 66 ae be bd 05 05 3e
       0.0017422781 0.09176067 -0.3406256 0.1299047
000120 bb c5 29 bd 5d c0 39 be a9 12 5f 3d 45 ff 66 3e
       -0.041448336 -0.18139787 0.054461155 0.22558315
000130 17 f7 01 bd 4b 78 c1 3d bf 49 5b bc b5 01 23 3e
       -0.031729784 0.09446772 -0.013384282 0.1591862
000140 93 a6 0e 3e 2e c1 ba 3c 12 37 c1 bd a5 14 be bd
       0.1393073 0.022797193 -0.09434332 -0.092812814
000150 44 18 85 bc e8 8a dc bd 6f b8 e4 3d b6 cd 9e 3d
       -0.016246922 -0.10768682 0.111679904 0.0775408
000160 69 ae c6 3d da d3 e9 3d 0b 67 27 be 2f 24 0b 3e
       0.09701235 0.114173606 -0.16347902 0.13588022
000170 60 85 ee 3d da 20 8b bd b3 df 3a bd 75 61 76 be
       0.11646533 -0.06793375 -0.045623492 -0.24060614
000180 7f 1c 5f 3d ff bd 62 bc b4 4f db 3b b6 50 5a be
       0.054470535 -0.013839244 0.006692851 -0.21319851
000190 e8 d6 1b ba 7b 39 54 3e 2a 2c 9d 3d f9 ca 73 be
       -0.0005944804 0.20725052 0.07674439 -0.23807897
0001a0 8f 5a dc 3b 98 48 8f 3e db 3a df bd 8b 66 41 bc
       0.0067246626 0.27985072 -0.10899898 -0.011804233
0001b0 6d 91 97 be da 7d 94 bd 72 40 4d bd ec 0b b6 bd
       -0.2960314 -0.07250567 -0.050110288 -0.08888993
0001c0 49 7c 21 be a7 43 9f bd 5a 65 f7 3d f5 63 84 3d
       -0.15770067 -0.077765755 0.12079878 0.06464378
0001d0 a0 cf 01 be 6d 5d fc bc 64 97 59 3d c8 65 78 3d
       -0.12676859 -0.030806268 0.053122893 0.06064394
0001e0 31 d5 91 bc 8b 42 3b be 62 d4 a6 3d 3d a8 6a 3d
       -0.017801853 -0.18287103 0.081459776 0.05728935
0001f0 65 90 38 bd 5c 5a f4 3d 2b ae 83 bd c9 5b a4 3d
       -0.04505958 0.11931297 -0.06429704 0.08025319
000200 19 f4 26 be 8d 6e a5 bd 37 e8 1e 3d fe 53 61 bd
       -0.16304053 -0.080777265 0.038795676 -0.05501174
000210 8c 01 96 3d fa bb 77 3d e7 5c f1 bc 45 be 04 3d
       0.07324514 0.060482003 -0.029463245 0.032408018
000220 be 4f aa 3d b8 01 e4 bd d5 15 e2 bc 78 8a b7 3d
       0.08315991 -0.1113314 -0.027598301 0.08961958
000230 4a 5d 33 3d 43 ae 0b 3e 35 95 c0 bd 16 11 df bc
       0.04379014 0.13640694 -0.09403459 -0.027229827
000240 39 42 15 be 17 39 54 3e ad 3a 45 3d b9 c7 a2 bd
       -0.14576043 0.20724903 0.04815166 -0.0794825
000250 a0 37 63 be c5 99 cc 3d cb a4 89 3d b4 0f a6 3a
       -0.22189188 0.09990267 0.06720885 0.0012669475
000260 ea 3c 05 bd 8c 0d 69 3e a9 34 07 3e 2d b7 75 3e
       -0.032528795 0.22759074 0.13203682 0.23995657
000270 ea 1b e1 3d cc 09 66 3e 25 4a 2d be d3 9f 7d 3c
       0.10991652 0.22464675 -0.16922815 0.01548
000280 60 ac 19 3d 38 7e 8f 3d a1 1e 2b be bb a5 11 3d
       0.037517905 0.07006496 -0.16710903 0.035558444
000290 95 89 d4 3d 87 c6 c4 3d 86 d9 12 3e 1b 8c 42 3d
       0.10377804 0.096081786 0.14340791 0.047496896
0002a0 0e a3 ef 3d fd d7 99 be 0b 44 94 be 70 bc f2 bd
       0.11701022 -0.30047598 -0.28958163 -0.11852348
0002b0 79 43 1f 3c d6 ab 92 3c cc dd 2b bd cd 5d ee bd
       0.009720677 0.017904203 -0.04195957 -0.11638985
0002c0 2f 6c 03 3e 0e af 58 be 04 c3 a6 3d 10 41 bb bd
       0.12834238 -0.21160528 0.08142665 -0.09143269
0002d0 ed c3 70 bc ec 93 25 3e d0 3c 35 be 30 56 b1 bd
       -0.01469515 0.16169709 -0.1769898 -0.08659017
0002e0 05 33 c4 bd 3b 78 c2 bd 00 9e 74 3e 01 62 db 3d
       -0.09580044 -0.094955884 0.23888397 0.10712052
0002f0 65 2d d6 bb 93 34 2f 3d 94 c8 01 3e 88 9e 27 3d
       -0.006536173 0.042774748 0.1267417 0.04092267
000300 f5 07 50 bc a1 59 37 be c5 0a 79 3c 7f 8a c4 bc
       -0.01269721 -0.17905284 0.015200322 -0.023991821
000310 7e 67 15 bc cd d7 ec bd 1f 9c e7 bd d0 8e 74 bb
       -0.009118913 -0.11564598 -0.113090746 -0.0037316568
000320 1d 50 2d be b7 49 fc bc 77 67 a5 bc 5f 62 be 3d
       -0.16925092 -0.030796869 -0.020190937 0.092961065
000330 11 32 47 3d 16 f8 1b 3e e8 8f 46 bd 5f 52 63 ba
       0.04863173 0.15231356 -0.048477083 -0.0008671637
000340 d8 ec 9f 3d 19 a8 97 bd 33 e1 00 bd 59 cc 6c 3c
       0.07808846 -0.07405109 -0.031464767 0.014453017
000350 5d cf ab bd 45 86 20 3d 6d 9b 62 3c 79 8e f4 3c
       -0.08389161 0.03919055 0.013831002 0.029853093
000360 99 d5 85 3d e5 5c 72 bd 7c 0d b8 3b 19 79 29 bd
       0.06534881 -0.059170622 0.005616842 -0.041375253
000370 28 a8 b0 3d e4 dd f6 bb 01 5c 46 3e 54 0c 3a 3c
       0.08625823 -0.0075337756 0.19371034 0.011355478
000380 9c ff b1 ba 31 f0 87 bb 45 ff 37 3d 0d 18 f5 3d
       -0.0013580206 -0.004148506 0.04492118 0.11967478
000390 ca b9 2e be de 29 28 3e 60 87 86 3e 5b 89 aa bd
       -0.1706306 0.16422221 0.26275158 -0.0832698
0003a0 0d 27 0a 3e 1e d3 0d be 2f f7 24 3e 42 36 16 be
       0.13491459 -0.13850066 0.16109918 -0.14669135
0003b0 b9 76 86 3d 3e 48 c6 3c 0d 72 75 bd 06 e9 40 bd
       0.06565613 0.02420437 -0.05992322 -0.04709723
0003c0 2a 62 6e 3d 65 3f f2 bc e1 d2 82 be d9 e5 56 bd
       0.058199085 -0.029571244 -0.25551513 -0.052465294
0003d0 df 75 14 3e 44 2e 29 be b6 55 4c be 23 1d 43 3d
       0.14498089 -0.16521555 -0.19954571 0.04763521
0003e0 fe 74 12 be 88 c0 94 be 2e 0c 86 bd 67 d7 69 3e
       -0.14302441 -0.2905314 -0.06545292 0.22836076
0003f0 b7 42 82 be 8f 71 c4 3c 95 d4 65 be cd 0c 80 be
       -0.25441524 0.02397993 -0.22444375 -0.25009766

fc2.bias f4 [64]
000000 4e 4b 86 bd 3f 1f 2a bd 8b 4a a9 3d d0 a0 b2 3c
       -0.06557332 -0.041533705 0.08266171 0.021805197
000010 83 b6 9e 3d 0b c7 20 be c7 99 3d bd 88 63 43 3d
       0.07749655 -0.15700929 -0.04628923 0.047702342
000020 11 0f fb 3d 4d b9 6d 3e ce 78 6d bd 0b 50 44 3e
       0.12258733 0.23215218 -0.057976536 0.19171159
000030 21 6c cc 3c d7 02 93 bd 63 4c d6 bd d6 03 dc 3d
       0.024953904 -0.07178276 -0.10463788 0.10742919
000040 46 7c 04 bd eb f4 06 be da d8 11 bd 0b 19 8d 3d
       -0.03234508 -0.13179366 -0.035607196 0.06889542
000050 83 ed b6 3d dc 2e 81 3e b9 16 1d be dc 2f a7 bd
       0.089320205 0.25231063 -0.153407 -0.08163425
000060 7e 8d 97 bd d3 21 ec bd 11 14 d4 3d e9 d9 97 bd
       -0.07400034 -0.11529889 0.1035539 -0.0741461
000070 a6 b1 9f bd 40 77 fc 3d 69 d8 95 3d 70 dd c0 bd
       -0.077975556 0.12327433 0.073166676 -0.09417236
000080 46 64 95 bd 9d fc d8 3d 44 b8 97 3d f4 62 68 bd
       -0.07294516 0.10595057 0.07408193 -0.056734994
000090 7c ff a8 bd 57 dc 1c be a9 0c 40 3e 2c 8e 3d bd
       -0.08251855 -0.15318428 0.1875483 -0.046278164
0000a0 2a cb d4 bd c9 0c 95 3e 82 ca 03 3e 8f 07 7e bd
       -0.10390313 0.29111317 0.1287022 -0.062018927
0000b0 85 62 20 3c 10 81 f9 bd b7 b6 33 bd d9 96 1b be
       0.009789114 -0.1218282 -0.043875422 -0.15194263
0000c0 0a e2 b1 3c a8 55 36 bd 33 41 fb bd 97 f0 44 3e
       0.02171423 -0.044515282 -0.12268295 0.19232403
0000d0 62 31 5e bd c1 9b 97 bd 5c c9 f8 3d e7 d7 c2 bd
       -0.054246314 -0.074027546 0.12147781 -0.09513836
0000e0 52 9e 0f be 78 24 d6 bd ec 0c 30 3c 37 4b 81 bd
       -0.14025238 -0.104561746 0.010745268 -0.06313174
0000f0 61 c5 5b 3d 65 71 f3 3d 73 2e aa 3c 9b 4b b6 bd
       0.053655032 0.11886863 0.020774102 -0.08901139

fc3.weight f4 [4, 64]
000000 7e 6d 8c 3d c0 a1 0c 3e 2e fa d9 3d 7e 6e 7a 3d
       0.068568215 0.13733578 0.10643421 0.06114053
000010 65 a6 2d 3e 1a da 01 be 15 7d d4 3e 02 a4 35 be
       0.16958006 -0.12680855 0.4150168 -0.17738345
000020 c9 e6 94 3d ae a7 93 3d de 02 37 be d2 4e 2b 3e
       0.07270581 0.07209717 -0.17872187 0.16729286
000030 b8 a5 96 3d 81 75 8b 3d 3d 56 d4 be 37 f1 82 bd
       0.07355827 0.068095215 -0.41472045 -0.06393664
000040 f0 09 03 bd e9 86 97 3d 90 db ac 3d 27 2d 24 3e
       -0.0319919 0.07398779 0.08440316 0.16032849
000050 09 f5 19 3e d8 96 27 3c 5b 14 86 3d 60 c8 db bd
       0.1503488 0.010228835 0.06546851 -0.10731578
000060 ba 62 07 bd ae 31 a2 bd d2 12 15 be 81 b0 27 3e
       -0.033053137 -0.07919632 -0.1455796 0.16375925
000070 aa 1c 10 3e 46 ca d5 3d a0 21 21 be 5c bf af 3d
       0.14073434 0.10438971 -0.15735483 0.08581421
000080 8c cd 03 3d bc 44 e3 3d 3e 9c e7 3d 99 10 aa bd
       0.032178447 0.110970944 0.11309098 -0.08303947
000090 30 0b 49 3e d0 bd 1b 3d 96 13 b4 3d d2 1e 8e 3e
       0.19633174 0.038022816 0.08792798 0.2775789
0000a0 f4 ad 0c 3d e4 6b d1 3d ce 8f 88 3d 72 bf b0 3d
       0.034345582 0.10225657 0.066680536 0.08630265
0000b0 07 ee 09 bd 5e 99 86 bd c6 7f e3 3d 46 bc 2f 3e
       -0.033674266 -0.06572221 0.11108355 0.17161664
0000c0 1e a9 c4 bd f7 61 81 3e 1e b3 3e bd b4 29 23 3e
       -0.09602569 0.25270054 -0.04655754 0.15933877
0000d0 c2 b7 5b 3e 10 13 50 be ba 05 b9 3d 8e f9 8d 3b
       0.21456817 -0.20319772 0.090342954 0.0043327278
0000e0 1b 51 71 be 37 59 90 3c 69 50 36 3d e8 41 f9 3c
       -0.23566096 0.017620666 0.04451028 0.030426934
0000f0 3b ef d3 3c ec 44 ec 3d 61 18 85 bd 88 a4 71 3d
       0.02587091 0.11536583 -0.064987905 0.0589948
000100 47 17 c2 3e c1 02 33 3e 78 80 0c 3e b4 3f 6e be
       0.37908384 0.1748152 0.13720882 -0.23266488
000110 4b a3 e1 3d a3 2b 3f 3e 32 07 e0 3d b9 fd 28 be
       0.11017474 0.1866899 0.109388724 -0.16503038
000120 c6 67 a0 bc 37 54 b7 3d 63 ba 14 be fc f8 cb 3d
       -0.019580733 0.089516096 -0.14524226 0.099595994
000130 97 12 68 bd 7a 44 0b 3e 48 83 25 be b8 9d eb 3b
       -0.056658354 0.1360034 -0.16163361 0.0071904324
000140 5f 19 d4 bd 55 18 f2 3d 5f 9f 09 be e3 bd 62 3d
       -0.10356402 0.11821047 -0.13439701 0.05535687
000150 a2 11 98 3d 57 70 13 3e 98 24 2a 3c 0d 05 3a 3e
       0.07425238 0.14398323 0.010384701 0.18165989
000160 95 0e f0 3d d5 b2 5c bc de 31 5b bd 00 44 7b 3e
       0.11721531 -0.013470371 -0.053514354 0.24537659
000170 e6 71 07 3e d1 d7 a8 3d 81 51 a8 3e af 0a 0b 3e
       0.13227043 0.08244289 0.32874683 0.13578294
000180 be 67 12 3d ec 4e 88 3c 9d 1d 0f 3e 27 ae f0 bd
       0.035743468 0.016639195 0.1397614 -0.11751967
000190 38 0d 55 3d c0 37 a6 be 87 0e b3 3d 3b be de 3d
       0.05201456 -0.3246441 0.08743005 0.10876127
0001a0 c0 39 1e 3e 12 c9 e9 3d 50 9b a8 bc e5 25 25 3e
       0.15451717 0.11415304 -0.020581871 0.16127737
0001b0 07 cc 28 3c 7f 5c 05 be 26 59 cf 3d ac f8 f9 3d
       0.01030255 -0.13023566 0.101244256 0.122056335
0001c0 4b a5 28 be f0 6f 22 3d 13 72 a3 bc 7d 33 28 3d
       -0.16469304 0.039657533 -0.019951856 0.041064728
0001d0 34 99 43 3e 2c 9c cc bb d6 8b df 3d de 07 24 3e
       0.19101411 -0.006244203 0.109153435 0.16018626
0001e0 32 41 ea bd 93 d6 98 3c ba 80 0e 3e 7c ea 61 bc
       -0.11438216 0.018657004 0.13916293 -0.013788816
0001f0 54 b5 bf bc 4d b6 f1 bd 5b 01 6a be 2d 18 7f 3d
       -0.023401894 -0.11802349 -0.2285208 0.062278915
000200 9c 7c 81 bd 98 c0 e6 3d db 87 39 3e 93 3c 0a 3e
       -0.063225955 0.11267203 0.18118231 0.1349967
000210 16 d7 63 3e f3 43 3f 3d 3d ae d3 3d 05 ff fe bd
       0.22250018 0.04669566 0.10335968 -0.12450985
000220 ed 3e 34 3d 82 fc a7 3d 31 dd de be 75 a2 37 3e
       0.044005323 0.08202459 -0.4352813 0.17933066
000230 16 68 1d 3e f7 df 62 be 16 7d 08 be 43 0b 10 3e
       0.15371737 -0.22155748 -0.13328966 0.14066796
000240 c3 3a 7f 3c 1d 6c 18 be 3b 3a cf bd dd cc 32 3d
       0.015577975 -0.14884992 -0.101185285 0.043652404
000250 a1 ae 1a 3d 99 e0 14 3e dd 21 11 be 2d 1b 25 3d
       0.037764195 0.14538802 -0.14173074 0.04030912
000260 8b eb 9b 3e e0 ff aa bd 1d 00 19 be 16 b8 be bd
       0.30453143 -0.083495855 -0.1494145 -0.09312455
000270 df df c4 3e ed 5c 29 3e 93 5a 22 be 04 10 b2 3c
       0.3845205 0.16539355 -0.15854864 0.021736152
000280 fe 6f 82 bd 9a 82 08 3d 17 d9 20 3e 34 83 49 3e
       -0.06369017 0.033327676 0.15707813 0.19678956
000290 5c 4a 52 3e 94 fb 43 bd bf 0b 9f 3d e0 50 20 be
       0.20536178 -0.047847345 0.07765912 -0.15655851
0002a0 bc 35 b5 3e 8f 1e f8 3d 00 8b e9 3d e0 ff 29 3e
       0.3539256 0.121152036 0.11403465 0.16601515
0002b0 86 73 2e 3e b2 67 7d bd 48 22 9a 3d 18 40 b8 3e
       0.17036256 -0.06186647 0.0752607 0.359864
0002c0 64 3c e9 3c 7c d9 51 bd 12 31 82 be a8 41 25 3e
       0.02847118 -0.0512328 -0.25428063 0.16138327
0002d0 a7 93 c5 3d fa 8c 0b bb e4 1b 85 3d bf fa 3b 3d
       0.09647303 -0.0021293745 0.0649946 0.045893427
0002e0 e3 94 29 be 45 4d 2b 3d b4 09 ed bd 98 7d bc bd
       -0.16560702 0.041821737 -0.11574116 -0.092036426
0002f0 c5 31 2d be 3b 09 49 3d 52 98 40 3c 8d a1 80 3c
       -0.16913517 0.04908107 0.011755066 0.015702033
000300 02 65 80 bd 3c 39 97 3e 42 45 3c 3d f0 38 73 be
       -0.06269266 0.29535854 0.045964487 -0.23752189
000310 8a 72 06 be 0c d0 c7 3d 0a cb 92 3d 51 c9 88 bd
       -0.1312963 0.09756479 0.07167633 -0.06679023
000320 0c bb c4 3d cb 34 20 3e a9 bc 36 bd 7e 91 ae 3c
       0.09605989 0.15645139 -0.044613514 0.02130961
000330 7f 63 b5 3d 5d 7a 1d 3d 45 d7 e9 bd d2 57 3b bc
       0.08856868 0.038446773 -0.114180125 -0.011434512
000340 72 70 f0 3d bd a2 c0 3c 80 04 96 bc ee e5 1d 3e
       0.11740197 0.0235151 -0.018312693 0.15419742
000350 42 1f 86 3d 43 cb 12 3e 7a 5f 60 bc f4 b5 e6 3e
       0.06548931 0.1433535 -0.013694638 0.45060694
000360 fe 9c 3d 3d 58 00 51 be 3f 88 8a bc 0e 5d 22 3e
       0.046292298 -0.20410287 -0.01691067 0.1585581
000370 1e 3c c1 bc 39 a2 0d 3c 6e ff 82 3d f7 e3 d0 3d
       -0.023588236 0.008644634 0.063963756 0.10199731
000380 7d 88 2a bd f5 bf a1 3d fc 6d c4 bc c9 a5 59 3e
       -0.04163407 0.07897941 -0.023978226 0.21254648
000390 19 dc 8c bd 26 6d 63 3d 59 d5 22 3e ee 02 a8 3e
       -0.06877918 0.055524014 0.15901698 0.32814735
0003a0 13 ba a4 bd 25 5e 28 3e 86 6f f3 3d 80 64 38 be
       -0.08043303 0.16442163 0.11886506 -0.18007088
0003b0 20 46 35 3e b2 28 f2 bd 34 2c b4 3d 9e 9b 64 3d
       0.17702532 -0.11824168 0.087974936 0.05581247
0003c0 79 83 6b bc f8 88 84 bd e8 d7 93 bd ff 6e 49 3e
       -0.014374607 -0.06471437 -0.07218915 0.19671248
0003d0 d5 7e cd 3d 69 84 8c bd 0f a0 c3 3d 3e 99 1d 3e
       0.10033957 -0.06861193 0.09552013 0.15390489
0003e0 61 99 57 be 21 ab b8 be 3c e5 4d be 2a 09 35 be
       -0.21054603 -0.3606806 -0.20106977 -0.17679277
0003f0 bf b9 04 be 6f c4 9a 3b 47 fe d3 bd da ab 6e 3e
       -0.12961482 0.0047231237 -0.10351234 0.23307744

fc3.bias f4 [4]
000000 e6 57 1e 3e d6 dc 15 3e b4 a6 56 3d f2 3b 13 3d
       0.15463218 0.14635023 0.052405074 0.03594584
